…
solver_mode: GPU
device_id: 0
net: "examples/segnet/segnet_train.prototxt"
train_state {
  level: 0
  stage: ""
}
test_initialization: false
I0726 09:55:31.354178 47614 solver.cpp:91] Creating training net from net file: examples/segnet/segnet_train.prototxt
I0726 09:55:31.356215 47614 net.cpp:58] Initializing net from parameters: 
name: "segnet"
state {
  phase: TRAIN
  level: 0
  stage: ""
}
layer {
  name: "data"
  type: "DenseImageData"
  top: "data"
  top: "label"
  dense_image_data_param {
    source: "data/mydata/train.txt"
    batch_size: 4
    shuffle: true
  }
}
layer {
  name: "norm"
  type: "LRN"
  bottom: "data"
  top: "norm"
  lrn_param {
    local_size: 5
    alpha: 0.0001
    beta: 0.75
  }
}
layer {
  name: "conv1"
  type: "Convolution"
  bottom: "norm"
  top: "conv1"
  param {
    lr_mult: 1
    decay_mult: 1
  }
  param {
    lr_mult: 2
    decay_mult: 0
  }
  convolution_param {
    num_output: 64
    pad: 3
    kernel_size: 7
    weight_filler {
      type: "msra"
    }
    bias_filler {
      type: "constant"
    }
  }
}
layer {
  name: "conv1_bn"
  type: "BN"
  bottom: "conv1"
  top: "conv1"
  bn_param {
    scale_filler {
      type: "constant"
      value: 1
    }
    shift_filler {
      type: "constant"
      value: 0.001
    }
  }
}
layer {
  name: "relu1"
  type: "ReLU"
  bottom: "conv1"
  top: "conv1"
}
layer {
  name: "pool1"
  type: "Pooling"
  bottom: "conv1"
  top: "pool1"
  top: "pool1_mask"
  pooling_param {
    pool: MAX
    kernel_size: 2
    stride: 2
  }
}
layer {
  name: "conv2"
  type: "Convolution"
  bottom: "pool1"
  top: "conv2"
  param {
    lr_mult: 1
    decay_mult: 1
  }
  param {
    lr_mult: 2
    decay_mult: 0
  }
  convolution_param {
    num_output: 64
    pad: 3
    kernel_size: 7
    weight_filler {
      type: "msra"
    }
    bias_filler {
      type: "constant"
    }
  }
}
layer {
  name: "conv2_bn"
  type: "BN"
  bottom: "conv2"
  top: "conv2"
  bn_param {
    scale_filler {
      type: "constant"
      value: 1
    }
    shift_filler {
      type: "constant"
      value: 0.001
    }
  }
}
layer {
  name: "relu2"
  type: "ReLU"
  bottom: "conv2"
  top: "conv2"
}
layer {
  name: "pool2"
  type: "Pooling"
  bottom: "conv2"
  top: "pool2"
  top: "pool2_mask"
  pooling_param {
    pool: MAX
    kernel_size: 2
    stride: 2
  }
}
layer {
  name: "conv3"
  type: "Convolution"
  bottom: "pool2"
  top: "conv3"
  param {
    lr_mult: 1
    decay_mult: 1
  }
  param {
    lr_mult: 2
    decay_mult: 0
  }
  convolution_param {
    num_output: 64
    pad: 3
    kernel_size: 7
    weight_filler {
      type: "msra"
    }
    bias_filler {
      type: "constant"
    }
  }
}
layer {
  name: "conv3_bn"
  type: "BN"
  bottom: "conv3"
  top: "conv3"
  bn_param {
    scale_filler {
      type: "constant"
      value: 1
    }
    shift_filler {
      type: "constant"
      value: 0.001
    }
  }
}
layer {
  name: "relu3"
  type: "ReLU"
  bottom: "conv3"
  top: "conv3"
}
layer {
  name: "pool3"
  type: "Pooling"
  bottom: "conv3"
  top: "pool3"
  top: "pool3_mask"
  pooling_param {
    pool: MAX
    kernel_size: 2
    stride: 2
  }
}
layer {
  name: "conv4"
  type: "Convolution"
  bottom: "pool3"
  top: "conv4"
  param {
    lr_mult: 1
    decay_mult: 1
  }
  param {
    lr_mult: 2
    decay_mult: 0
  }
  convolution_param {
    num_output: 64
    pad: 3
    kernel_size: 7
    weight_filler {
      type: "msra"
    }
    bias_filler {
      type: "constant"
    }
  }
}
layer {
  name: "conv4_bn"
  type: "BN"
  bottom: "conv4"
  top: "conv4"
  bn_param {
    scale_filler {
      type: "constant"
      value: 1
    }
    shift_filler {
      type: "constant"
      value: 0.001
    }
  }
}
layer {
  name: "relu4"
  type: "ReLU"
  bottom: "conv4"
  top: "conv4"
}
layer {
  name: "pool4"
  type: "Pooling"
  bottom: "conv4"
  top: "pool4"
  top: "pool4_mask"
  pooling_param {
    pool: MAX
    kernel_size: 2
    stride: 2
  }
}
layer {
  name: "upsample4"
  type: "Upsample"
  bottom: "pool4"
  bottom: "pool4_mask"
  top: "upsample4"
  upsample_param {
    scale: 2
    pad_out_h: true
  }
}
layer {
  name: "conv_decode4"
  type: "Convolution"
  bottom: "upsample4"
  top: "conv_decode4"
  param {
    lr_mult: 1
    decay_mult: 1
  }
  param {
    lr_mult: 2
    decay_mult: 0
  }
  convolution_param {
    num_output: 64
    pad: 3
    kernel_size: 7
    weight_filler {
      type: "msra"
    }
    bias_filler {
      type: "constant"
    }
  }
}
layer {
  name: "conv_decode4_bn"
  type: "BN"
  bottom: "conv_decode4"
  top: "conv_decode4"
  bn_param {
    scale_filler {
      type: "constant"
      value: 1
    }
    shift_filler {
      type: "constant"
      value: 0.001
    }
  }
}
layer {
  name: "upsample3"
  type: "Upsample"
  bottom: "conv_decode4"
  bottom: "pool3_mask"
  top: "upsample3"
  upsample_param {
    scale: 2
  }
}
layer {
  name: "conv_decode3"
  type: "Convolution"
  bottom: "upsample3"
  top: "conv_decode3"
  param {
    lr_mult: 1
    decay_mult: 1
  }
  param {
    lr_mult: 2
    decay_mult: 0
  }
  convolution_param {
    num_output: 64
    pad: 3
    kernel_size: 7
    weight_filler {
      type: "msra"
    }
    bias_filler {
      type: "constant"
    }
  }
}
layer {
  name: "conv_decode3_bn"
  type: "BN"
  bottom: "conv_decode3"
  top: "conv_decode3"
  bn_param {
    scale_filler {
      type: "constant"
      value: 1
    }
    shift_filler {
      type: "constant"
      value: 0.001
    }
  }
}
layer {
  name: "upsample2"
  type: "Upsample"
  bottom: "conv_decode3"
  bottom: "pool2_mask"
  top: "upsample2"
  upsample_param {
    scale: 2
  }
}
layer {
  name: "conv_decode2"
  type: "Convolution"
  bottom: "upsample2"
  top: "conv_decode2"
  param {
    lr_mult: 1
    decay_mult: 1
  }
  param {
    lr_mult: 2
    decay_mult: 0
  }
  convolution_param {
    num_output: 64
    pad: 3
    kernel_size: 7
    weight_filler {
      type: "msra"
    }
    bias_filler {
      type: "constant"
    }
  }
}
layer {
  name: "conv_decode2_bn"
  type: "BN"
  bottom: "conv_decode2"
  top: "conv_decode2"
  bn_param {
    scale_filler {
      type: "constant"
      value: 1
    }
    shift_filler {
      type: "constant"
      value: 0.001
    }
  }
}
layer {
  name: "upsample1"
  type: "Upsample"
  bottom: "conv_decode2"
  bottom: "pool1_mask"
  top: "upsample1"
  upsample_param {
    scale: 2
  }
}
layer {
  name: "conv_decode1"
  type: "Convolution"
  bottom: "upsample1"
  top: "conv_decode1"
  param {
    lr_mult: 1
    decay_mult: 1
  }
  param {
    lr_mult: 2
    decay_mult: 0
  }
  convolution_param {
    num_output: 64
    pad: 3
    kernel_size: 7
    weight_filler {
      type: "msra"
    }
    bias_filler {
      type: "constant"
    }
  }
}
layer {
  name: "conv_decode1_bn"
  type: "BN"
  bottom: "conv_decode1"
  top: "conv_decode1"
  bn_param {
    scale_filler {
      type: "constant"
      value: 1
    }
    shift_filler {
      type: "constant"
      value: 0.001
    }
  }
}
layer {
  name: "conv_classifier"
  type: "Convolution"
  bottom: "conv_decode1"
  top: "conv_classifier"
  param {
    lr_mult: 1
    decay_mult: 1
  }
  param {
    lr_mult: 2
    decay_mult: 0
  }
  convolution_param {
    num_output: 2
    kernel_size: 1
    weight_filler {
      type: "msra"
    }
    bias_filler {
      type: "constant"
    }
  }
}
layer {
  name: "loss"
  type: "SoftmaxWithLoss"
  bottom: "conv_classifier"
  bottom: "label"
  top: "loss"
  loss_param {
    ignore_label: 2
    weight_by_label_freqs: true
    class_weighting: 0.59744
    class_weighting: 3.06568
  }
  softmax_param {
    engine: CAFFE
  }
}
layer {
  name: "accuracy"
  type: "Accuracy"
  bottom: "conv_classifier"
  bottom: "label"
  top: "accuracy"
  top: "per_class_accuracy"
}
I0726 09:55:31.356575 47614 layer_factory.hpp:77] Creating layer data
I0726 09:55:31.356675 47614 net.cpp:100] Creating Layer data
I0726 09:55:31.356693 47614 net.cpp:408] data -> data
I0726 09:55:31.356736 47614 net.cpp:408] data -> label
I0726 09:55:31.356767 47614 dense_image_data_layer.cpp:49] Opening file data/mydata/train.txt
I0726 09:55:31.356845 47614 dense_image_data_layer.cpp:59] Shuffling data
I0726 09:55:31.357383 47614 dense_image_data_layer.cpp:64] A total of 4 examples.
I0726 09:55:33.780453 47614 dense_image_data_layer.cpp:117] output data size: 4,3,360,480
I0726 09:55:33.791561 47614 net.cpp:150] Setting up data
I0726 09:55:33.791646 47614 net.cpp:157] Top shape: 4 3 360 480 (2073600)
I0726 09:55:33.791671 47614 net.cpp:157] Top shape: 4 1 360 480 (691200)
I0726 09:55:33.791684 47614 net.cpp:165] Memory required for data: 11059200
I0726 09:55:33.791710 47614 layer_factory.hpp:77] Creating layer label_data_1_split
I0726 09:55:33.791757 47614 net.cpp:100] Creating Layer label_data_1_split
I0726 09:55:33.791779 47614 net.cpp:434] label_data_1_split <- label
I0726 09:55:33.791817 47614 net.cpp:408] label_data_1_split -> label_data_1_split_0
I0726 09:55:33.791847 47614 net.cpp:408] label_data_1_split -> label_data_1_split_1
I0726 09:55:33.791955 47614 net.cpp:150] Setting up label_data_1_split
I0726 09:55:33.791977 47614 net.cpp:157] Top shape: 4 1 360 480 (691200)
I0726 09:55:33.791993 47614 net.cpp:157] Top shape: 4 1 360 480 (691200)
I0726 09:55:33.792007 47614 net.cpp:165] Memory required for data: 16588800
I0726 09:55:33.792021 47614 layer_factory.hpp:77] Creating layer norm
I0726 09:55:33.792047 47614 net.cpp:100] Creating Layer norm
I0726 09:55:33.792062 47614 net.cpp:434] norm <- data
I0726 09:55:33.792081 47614 net.cpp:408] norm -> norm
I0726 09:55:33.792157 47614 net.cpp:150] Setting up norm
I0726 09:55:33.792178 47614 net.cpp:157] Top shape: 4 3 360 480 (2073600)
I0726 09:55:33.792191 47614 net.cpp:165] Memory required for data: 24883200
I0726 09:55:33.792207 47614 layer_factory.hpp:77] Creating layer conv1
I0726 09:55:33.792243 47614 net.cpp:100] Creating Layer conv1
I0726 09:55:33.792258 47614 net.cpp:434] conv1 <- norm
I0726 09:55:33.792277 47614 net.cpp:408] conv1 -> conv1
I0726 09:55:33.800156 47614 net.cpp:150] Setting up conv1
I0726 09:55:33.800204 47614 net.cpp:157] Top shape: 4 64 360 480 (44236800)
I0726 09:55:33.800220 47614 net.cpp:165] Memory required for data: 201830400
I0726 09:55:33.800261 47614 layer_factory.hpp:77] Creating layer conv1_bn
I0726 09:55:33.800303 47614 net.cpp:100] Creating Layer conv1_bn
I0726 09:55:33.800319 47614 net.cpp:434] conv1_bn <- conv1
I0726 09:55:33.800338 47614 net.cpp:395] conv1_bn -> conv1 (in-place)
I0726 09:55:33.801126 47614 net.cpp:150] Setting up conv1_bn
I0726 09:55:33.801148 47614 net.cpp:157] Top shape: 4 64 360 480 (44236800)
I0726 09:55:33.801162 47614 net.cpp:165] Memory required for data: 378777600
I0726 09:55:33.801184 47614 layer_factory.hpp:77] Creating layer relu1
I0726 09:55:33.801203 47614 net.cpp:100] Creating Layer relu1
I0726 09:55:33.801218 47614 net.cpp:434] relu1 <- conv1
I0726 09:55:33.801234 47614 net.cpp:395] relu1 -> conv1 (in-place)
I0726 09:55:33.801251 47614 net.cpp:150] Setting up relu1
I0726 09:55:33.801267 47614 net.cpp:157] Top shape: 4 64 360 480 (44236800)
I0726 09:55:33.801280 47614 net.cpp:165] Memory required for data: 555724800
I0726 09:55:33.801293 47614 layer_factory.hpp:77] Creating layer pool1
I0726 09:55:33.801316 47614 net.cpp:100] Creating Layer pool1
I0726 09:55:33.801328 47614 net.cpp:434] pool1 <- conv1
I0726 09:55:33.801345 47614 net.cpp:408] pool1 -> pool1
I0726 09:55:33.801367 47614 net.cpp:408] pool1 -> pool1_mask
I0726 09:55:33.801450 47614 net.cpp:150] Setting up pool1
I0726 09:55:33.801471 47614 net.cpp:157] Top shape: 4 64 180 240 (11059200)
I0726 09:55:33.801486 47614 net.cpp:157] Top shape: 4 64 180 240 (11059200)
I0726 09:55:33.801499 47614 net.cpp:165] Memory required for data: 644198400
I0726 09:55:33.801512 47614 layer_factory.hpp:77] Creating layer conv2
I0726 09:55:33.801556 47614 net.cpp:100] Creating Layer conv2
I0726 09:55:33.801584 47614 net.cpp:434] conv2 <- pool1
I0726 09:55:33.801626 47614 net.cpp:408] conv2 -> conv2
I0726 09:55:33.817065 47614 net.cpp:150] Setting up conv2
I0726 09:55:33.817126 47614 net.cpp:157] Top shape: 4 64 180 240 (11059200)
I0726 09:55:33.817147 47614 net.cpp:165] Memory required for data: 688435200
I0726 09:55:33.817191 47614 layer_factory.hpp:77] Creating layer conv2_bn
I0726 09:55:33.817237 47614 net.cpp:100] Creating Layer conv2_bn
I0726 09:55:33.817276 47614 net.cpp:434] conv2_bn <- conv2
I0726 09:55:33.817306 47614 net.cpp:395] conv2_bn -> conv2 (in-place)
I0726 09:55:33.817839 47614 net.cpp:150] Setting up conv2_bn
I0726 09:55:33.817867 47614 net.cpp:157] Top shape: 4 64 180 240 (11059200)
I0726 09:55:33.817879 47614 net.cpp:165] Memory required for data: 732672000
I0726 09:55:33.817898 47614 layer_factory.hpp:77] Creating layer relu2
I0726 09:55:33.817926 47614 net.cpp:100] Creating Layer relu2
I0726 09:55:33.817939 47614 net.cpp:434] relu2 <- conv2
I0726 09:55:33.817952 47614 net.cpp:395] relu2 -> conv2 (in-place)
I0726 09:55:33.817970 47614 net.cpp:150] Setting up relu2
I0726 09:55:33.817983 47614 net.cpp:157] Top shape: 4 64 180 240 (11059200)
I0726 09:55:33.817994 47614 net.cpp:165] Memory required for data: 776908800
I0726 09:55:33.818009 47614 layer_factory.hpp:77] Creating layer pool2
I0726 09:55:33.818027 47614 net.cpp:100] Creating Layer pool2
I0726 09:55:33.818038 47614 net.cpp:434] pool2 <- conv2
I0726 09:55:33.818053 47614 net.cpp:408] pool2 -> pool2
I0726 09:55:33.818070 47614 net.cpp:408] pool2 -> pool2_mask
I0726 09:55:33.818125 47614 net.cpp:150] Setting up pool2
I0726 09:55:33.818143 47614 net.cpp:157] Top shape: 4 64 90 120 (2764800)
I0726 09:55:33.818156 47614 net.cpp:157] Top shape: 4 64 90 120 (2764800)
I0726 09:55:33.818164 47614 net.cpp:165] Memory required for data: 799027200
I0726 09:55:33.818174 47614 layer_factory.hpp:77] Creating layer conv3
I0726 09:55:33.818194 47614 net.cpp:100] Creating Layer conv3
I0726 09:55:33.818204 47614 net.cpp:434] conv3 <- pool2
I0726 09:55:33.818218 47614 net.cpp:408] conv3 -> conv3
I0726 09:55:33.830788 47614 net.cpp:150] Setting up conv3
I0726 09:55:33.830858 47614 net.cpp:157] Top shape: 4 64 90 120 (2764800)
I0726 09:55:33.830876 47614 net.cpp:165] Memory required for data: 810086400
I0726 09:55:33.830910 47614 layer_factory.hpp:77] Creating layer conv3_bn
I0726 09:55:33.830938 47614 net.cpp:100] Creating Layer conv3_bn
I0726 09:55:33.830955 47614 net.cpp:434] conv3_bn <- conv3
I0726 09:55:33.830974 47614 net.cpp:395] conv3_bn -> conv3 (in-place)
I0726 09:55:33.831379 47614 net.cpp:150] Setting up conv3_bn
I0726 09:55:33.831403 47614 net.cpp:157] Top shape: 4 64 90 120 (2764800)
I0726 09:55:33.831418 47614 net.cpp:165] Memory required for data: 821145600
I0726 09:55:33.831439 47614 layer_factory.hpp:77] Creating layer relu3
I0726 09:55:33.831459 47614 net.cpp:100] Creating Layer relu3
I0726 09:55:33.831473 47614 net.cpp:434] relu3 <- conv3
I0726 09:55:33.831490 47614 net.cpp:395] relu3 -> conv3 (in-place)
I0726 09:55:33.831508 47614 net.cpp:150] Setting up relu3
I0726 09:55:33.831526 47614 net.cpp:157] Top shape: 4 64 90 120 (2764800)
I0726 09:55:33.831537 47614 net.cpp:165] Memory required for data: 832204800
I0726 09:55:33.831567 47614 layer_factory.hpp:77] Creating layer pool3
I0726 09:55:33.831602 47614 net.cpp:100] Creating Layer pool3
I0726 09:55:33.831617 47614 net.cpp:434] pool3 <- conv3
I0726 09:55:33.831635 47614 net.cpp:408] pool3 -> pool3
I0726 09:55:33.831656 47614 net.cpp:408] pool3 -> pool3_mask
I0726 09:55:33.831727 47614 net.cpp:150] Setting up pool3
I0726 09:55:33.831746 47614 net.cpp:157] Top shape: 4 64 45 60 (691200)
I0726 09:55:33.831763 47614 net.cpp:157] Top shape: 4 64 45 60 (691200)
I0726 09:55:33.831775 47614 net.cpp:165] Memory required for data: 837734400
I0726 09:55:33.831789 47614 layer_factory.hpp:77] Creating layer conv4
I0726 09:55:33.831813 47614 net.cpp:100] Creating Layer conv4
I0726 09:55:33.831828 47614 net.cpp:434] conv4 <- pool3
I0726 09:55:33.831847 47614 net.cpp:408] conv4 -> conv4
I0726 09:55:33.849308 47614 net.cpp:150] Setting up conv4
I0726 09:55:33.849366 47614 net.cpp:157] Top shape: 4 64 45 60 (691200)
I0726 09:55:33.849376 47614 net.cpp:165] Memory required for data: 840499200
I0726 09:55:33.849390 47614 layer_factory.hpp:77] Creating layer conv4_bn
I0726 09:55:33.849414 47614 net.cpp:100] Creating Layer conv4_bn
I0726 09:55:33.849424 47614 net.cpp:434] conv4_bn <- conv4
I0726 09:55:33.849436 47614 net.cpp:395] conv4_bn -> conv4 (in-place)
I0726 09:55:33.849712 47614 net.cpp:150] Setting up conv4_bn
I0726 09:55:33.849728 47614 net.cpp:157] Top shape: 4 64 45 60 (691200)
I0726 09:55:33.849736 47614 net.cpp:165] Memory required for data: 843264000
I0726 09:55:33.849746 47614 layer_factory.hpp:77] Creating layer relu4
I0726 09:55:33.849758 47614 net.cpp:100] Creating Layer relu4
I0726 09:55:33.849766 47614 net.cpp:434] relu4 <- conv4
I0726 09:55:33.849774 47614 net.cpp:395] relu4 -> conv4 (in-place)
I0726 09:55:33.849786 47614 net.cpp:150] Setting up relu4
I0726 09:55:33.849793 47614 net.cpp:157] Top shape: 4 64 45 60 (691200)
I0726 09:55:33.849800 47614 net.cpp:165] Memory required for data: 846028800
I0726 09:55:33.849810 47614 layer_factory.hpp:77] Creating layer pool4
I0726 09:55:33.849822 47614 net.cpp:100] Creating Layer pool4
I0726 09:55:33.849831 47614 net.cpp:434] pool4 <- conv4
I0726 09:55:33.849841 47614 net.cpp:408] pool4 -> pool4
I0726 09:55:33.849854 47614 net.cpp:408] pool4 -> pool4_mask
I0726 09:55:33.849900 47614 net.cpp:150] Setting up pool4
I0726 09:55:33.849911 47614 net.cpp:157] Top shape: 4 64 23 30 (176640)
I0726 09:55:33.849921 47614 net.cpp:157] Top shape: 4 64 23 30 (176640)
I0726 09:55:33.849931 47614 net.cpp:165] Memory required for data: 847441920
I0726 09:55:33.849937 47614 layer_factory.hpp:77] Creating layer upsample4
I0726 09:55:33.849959 47614 net.cpp:100] Creating Layer upsample4
I0726 09:55:33.849968 47614 net.cpp:434] upsample4 <- pool4
I0726 09:55:33.849977 47614 net.cpp:434] upsample4 <- pool4_mask
I0726 09:55:33.849988 47614 net.cpp:408] upsample4 -> upsample4
I0726 09:55:33.850001 47614 upsample_layer.cpp:27] Params 'pad_out_{}_' are deprecated. Please declare upsample height and width useing the upsample_h, upsample_w parameters.
I0726 09:55:33.850028 47614 net.cpp:150] Setting up upsample4
I0726 09:55:33.850040 47614 net.cpp:157] Top shape: 4 64 45 60 (691200)
I0726 09:55:33.850046 47614 net.cpp:165] Memory required for data: 850206720
I0726 09:55:33.850055 47614 layer_factory.hpp:77] Creating layer conv_decode4
I0726 09:55:33.850069 47614 net.cpp:100] Creating Layer conv_decode4
I0726 09:55:33.850078 47614 net.cpp:434] conv_decode4 <- upsample4
I0726 09:55:33.850090 47614 net.cpp:408] conv_decode4 -> conv_decode4
I0726 09:55:33.857106 47614 net.cpp:150] Setting up conv_decode4
I0726 09:55:33.857126 47614 net.cpp:157] Top shape: 4 64 45 60 (691200)
I0726 09:55:33.857134 47614 net.cpp:165] Memory required for data: 852971520
I0726 09:55:33.857151 47614 layer_factory.hpp:77] Creating layer conv_decode4_bn
I0726 09:55:33.857162 47614 net.cpp:100] Creating Layer conv_decode4_bn
I0726 09:55:33.857169 47614 net.cpp:434] conv_decode4_bn <- conv_decode4
I0726 09:55:33.857179 47614 net.cpp:395] conv_decode4_bn -> conv_decode4 (in-place)
I0726 09:55:33.857384 47614 net.cpp:150] Setting up conv_decode4_bn
I0726 09:55:33.857398 47614 net.cpp:157] Top shape: 4 64 45 60 (691200)
I0726 09:55:33.857404 47614 net.cpp:165] Memory required for data: 855736320
I0726 09:55:33.857414 47614 layer_factory.hpp:77] Creating layer upsample3
I0726 09:55:33.857425 47614 net.cpp:100] Creating Layer upsample3
I0726 09:55:33.857432 47614 net.cpp:434] upsample3 <- conv_decode4
I0726 09:55:33.857447 47614 net.cpp:434] upsample3 <- pool3_mask
I0726 09:55:33.857457 47614 net.cpp:408] upsample3 -> upsample3
I0726 09:55:33.857470 47614 upsample_layer.cpp:27] Params 'pad_out_{}_' are deprecated. Please declare upsample height and width useing the upsample_h, upsample_w parameters.
I0726 09:55:33.857493 47614 net.cpp:150] Setting up upsample3
I0726 09:55:33.857504 47614 net.cpp:157] Top shape: 4 64 90 120 (2764800)
I0726 09:55:33.857519 47614 net.cpp:165] Memory required for data: 866795520
I0726 09:55:33.857554 47614 layer_factory.hpp:77] Creating layer conv_decode3
I0726 09:55:33.857571 47614 net.cpp:100] Creating Layer conv_decode3
I0726 09:55:33.857580 47614 net.cpp:434] conv_decode3 <- upsample3
I0726 09:55:33.857592 47614 net.cpp:408] conv_decode3 -> conv_decode3
I0726 09:55:33.866250 47614 net.cpp:150] Setting up conv_decode3
I0726 09:55:33.866276 47614 net.cpp:157] Top shape: 4 64 90 120 (2764800)
I0726 09:55:33.866283 47614 net.cpp:165] Memory required for data: 877854720
I0726 09:55:33.866294 47614 layer_factory.hpp:77] Creating layer conv_decode3_bn
I0726 09:55:33.866309 47614 net.cpp:100] Creating Layer conv_decode3_bn
I0726 09:55:33.866317 47614 net.cpp:434] conv_decode3_bn <- conv_decode3
I0726 09:55:33.866328 47614 net.cpp:395] conv_decode3_bn -> conv_decode3 (in-place)
I0726 09:55:33.866564 47614 net.cpp:150] Setting up conv_decode3_bn
I0726 09:55:33.866577 47614 net.cpp:157] Top shape: 4 64 90 120 (2764800)
I0726 09:55:33.866585 47614 net.cpp:165] Memory required for data: 888913920
I0726 09:55:33.866596 47614 layer_factory.hpp:77] Creating layer upsample2
I0726 09:55:33.866611 47614 net.cpp:100] Creating Layer upsample2
I0726 09:55:33.866621 47614 net.cpp:434] upsample2 <- conv_decode3
I0726 09:55:33.866629 47614 net.cpp:434] upsample2 <- pool2_mask
I0726 09:55:33.866641 47614 net.cpp:408] upsample2 -> upsample2
I0726 09:55:33.866652 47614 upsample_layer.cpp:27] Params 'pad_out_{}_' are deprecated. Please declare upsample height and width useing the upsample_h, upsample_w parameters.
I0726 09:55:33.866677 47614 net.cpp:150] Setting up upsample2
I0726 09:55:33.866688 47614 net.cpp:157] Top shape: 4 64 180 240 (11059200)
I0726 09:55:33.866694 47614 net.cpp:165] Memory required for data: 933150720
I0726 09:55:33.866701 47614 layer_factory.hpp:77] Creating layer conv_decode2
I0726 09:55:33.866717 47614 net.cpp:100] Creating Layer conv_decode2
I0726 09:55:33.866726 47614 net.cpp:434] conv_decode2 <- upsample2
I0726 09:55:33.866737 47614 net.cpp:408] conv_decode2 -> conv_decode2
I0726 09:55:33.873620 47614 net.cpp:150] Setting up conv_decode2
I0726 09:55:33.873637 47614 net.cpp:157] Top shape: 4 64 180 240 (11059200)
I0726 09:55:33.873644 47614 net.cpp:165] Memory required for data: 977387520
I0726 09:55:33.873653 47614 layer_factory.hpp:77] Creating layer conv_decode2_bn
I0726 09:55:33.873666 47614 net.cpp:100] Creating Layer conv_decode2_bn
I0726 09:55:33.873672 47614 net.cpp:434] conv_decode2_bn <- conv_decode2
I0726 09:55:33.873683 47614 net.cpp:395] conv_decode2_bn -> conv_decode2 (in-place)
I0726 09:55:33.873963 47614 net.cpp:150] Setting up conv_decode2_bn
I0726 09:55:33.873977 47614 net.cpp:157] Top shape: 4 64 180 240 (11059200)
I0726 09:55:33.873983 47614 net.cpp:165] Memory required for data: 1021624320
I0726 09:55:33.873998 47614 layer_factory.hpp:77] Creating layer upsample1
I0726 09:55:33.874009 47614 net.cpp:100] Creating Layer upsample1
I0726 09:55:33.874017 47614 net.cpp:434] upsample1 <- conv_decode2
I0726 09:55:33.874027 47614 net.cpp:434] upsample1 <- pool1_mask
I0726 09:55:33.874035 47614 net.cpp:408] upsample1 -> upsample1
I0726 09:55:33.874047 47614 upsample_layer.cpp:27] Params 'pad_out_{}_' are deprecated. Please declare upsample height and width useing the upsample_h, upsample_w parameters.
I0726 09:55:33.874071 47614 net.cpp:150] Setting up upsample1
I0726 09:55:33.874083 47614 net.cpp:157] Top shape: 4 64 360 480 (44236800)
I0726 09:55:33.874089 47614 net.cpp:165] Memory required for data: 1198571520
I0726 09:55:33.874096 47614 layer_factory.hpp:77] Creating layer conv_decode1
I0726 09:55:33.874111 47614 net.cpp:100] Creating Layer conv_decode1
I0726 09:55:33.874120 47614 net.cpp:434] conv_decode1 <- upsample1
I0726 09:55:33.874131 47614 net.cpp:408] conv_decode1 -> conv_decode1
I0726 09:55:33.882886 47614 net.cpp:150] Setting up conv_decode1
I0726 09:55:33.882912 47614 net.cpp:157] Top shape: 4 64 360 480 (44236800)
I0726 09:55:33.882920 47614 net.cpp:165] Memory required for data: 1375518720
I0726 09:55:33.882939 47614 layer_factory.hpp:77] Creating layer conv_decode1_bn
I0726 09:55:33.882961 47614 net.cpp:100] Creating Layer conv_decode1_bn
I0726 09:55:33.882969 47614 net.cpp:434] conv_decode1_bn <- conv_decode1
I0726 09:55:33.882982 47614 net.cpp:395] conv_decode1_bn -> conv_decode1 (in-place)
I0726 09:55:33.885238 47614 net.cpp:150] Setting up conv_decode1_bn
I0726 09:55:33.885262 47614 net.cpp:157] Top shape: 4 64 360 480 (44236800)
I0726 09:55:33.885270 47614 net.cpp:165] Memory required for data: 1552465920
I0726 09:55:33.885282 47614 layer_factory.hpp:77] Creating layer conv_classifier
I0726 09:55:33.885298 47614 net.cpp:100] Creating Layer conv_classifier
I0726 09:55:33.885306 47614 net.cpp:434] conv_classifier <- conv_decode1
I0726 09:55:33.885318 47614 net.cpp:408] conv_classifier -> conv_classifier
I0726 09:55:33.885709 47614 net.cpp:150] Setting up conv_classifier
I0726 09:55:33.885726 47614 net.cpp:157] Top shape: 4 2 360 480 (1382400)
I0726 09:55:33.885733 47614 net.cpp:165] Memory required for data: 1557995520
I0726 09:55:33.885751 47614 layer_factory.hpp:77] Creating layer conv_classifier_conv_classifier_0_split
I0726 09:55:33.885766 47614 net.cpp:100] Creating Layer conv_classifier_conv_classifier_0_split
I0726 09:55:33.885774 47614 net.cpp:434] conv_classifier_conv_classifier_0_split <- conv_classifier
I0726 09:55:33.885784 47614 net.cpp:408] conv_classifier_conv_classifier_0_split -> conv_classifier_conv_classifier_0_split_0
I0726 09:55:33.885799 47614 net.cpp:408] conv_classifier_conv_classifier_0_split -> conv_classifier_conv_classifier_0_split_1
I0726 09:55:33.885844 47614 net.cpp:150] Setting up conv_classifier_conv_classifier_0_split
I0726 09:55:33.885857 47614 net.cpp:157] Top shape: 4 2 360 480 (1382400)
I0726 09:55:33.885865 47614 net.cpp:157] Top shape: 4 2 360 480 (1382400)
I0726 09:55:33.885872 47614 net.cpp:165] Memory required for data: 1569054720
I0726 09:55:33.885879 47614 layer_factory.hpp:77] Creating layer loss
I0726 09:55:33.885895 47614 net.cpp:100] Creating Layer loss
I0726 09:55:33.885903 47614 net.cpp:434] loss <- conv_classifier_conv_classifier_0_split_0
I0726 09:55:33.885912 47614 net.cpp:434] loss <- label_data_1_split_0
I0726 09:55:33.885923 47614 net.cpp:408] loss -> loss
I0726 09:55:33.885943 47614 layer_factory.hpp:77] Creating layer loss
I0726 09:55:33.891033 47614 net.cpp:150] Setting up loss
I0726 09:55:33.891062 47614 net.cpp:157] Top shape: (1)
I0726 09:55:33.891070 47614 net.cpp:160]     with loss weight 1
I0726 09:55:33.891106 47614 net.cpp:165] Memory required for data: 1569054724
I0726 09:55:33.891115 47614 layer_factory.hpp:77] Creating layer accuracy
I0726 09:55:33.891129 47614 net.cpp:100] Creating Layer accuracy
I0726 09:55:33.891137 47614 net.cpp:434] accuracy <- conv_classifier_conv_classifier_0_split_1
I0726 09:55:33.891146 47614 net.cpp:434] accuracy <- label_data_1_split_1
I0726 09:55:33.891157 47614 net.cpp:408] accuracy -> accuracy
I0726 09:55:33.891170 47614 net.cpp:408] accuracy -> per_class_accuracy
I0726 09:55:33.891216 47614 net.cpp:150] Setting up accuracy
I0726 09:55:33.891228 47614 net.cpp:157] Top shape: (1)
I0726 09:55:33.891235 47614 net.cpp:157] Top shape: 2 (2)
I0726 09:55:33.891243 47614 net.cpp:165] Memory required for data: 1569054736
I0726 09:55:33.891250 47614 net.cpp:228] accuracy does not need backward computation.
I0726 09:55:33.891264 47614 net.cpp:226] loss needs backward computation.
I0726 09:55:33.891273 47614 net.cpp:226] conv_classifier_conv_classifier_0_split needs backward computation.
I0726 09:55:33.891281 47614 net.cpp:226] conv_classifier needs backward computation.
…
solver_mode: GPU
device_id: 0
net: "examples/segnet/segnet_train.prototxt"
train_state {
  level: 0
  stage: ""
}
test_initialization: false
I0726 10:02:11.627125 39651 solver.cpp:91] Creating training net from net file: examples/segnet/segnet_train.prototxt
I0726 10:02:11.628448 39651 net.cpp:58] Initializing net from parameters: 
name: "segnet"
state {
  phase: TRAIN
  level: 0
  stage: ""
}
layer {
  name: "data"
  type: "DenseImageData"
  top: "data"
  top: "label"
  dense_image_data_param {
    source: "data/mydata/train.txt"
    batch_size: 2
    shuffle: true
  }
}
layer {
  name: "norm"
  type: "LRN"
  bottom: "data"
  top: "norm"
  lrn_param {
    local_size: 5
    alpha: 0.0001
    beta: 0.75
  }
}
layer {
  name: "conv1"
  type: "Convolution"
  bottom: "norm"
  top: "conv1"
  param {
    lr_mult: 1
    decay_mult: 1
  }
  param {
    lr_mult: 2
    decay_mult: 0
  }
  convolution_param {
    num_output: 64
    pad: 3
    kernel_size: 7
    weight_filler {
      type: "msra"
    }
    bias_filler {
      type: "constant"
    }
  }
}
layer {
  name: "conv1_bn"
  type: "BN"
  bottom: "conv1"
  top: "conv1"
  bn_param {
    scale_filler {
      type: "constant"
      value: 1
    }
    shift_filler {
      type: "constant"
      value: 0.001
    }
  }
}
layer {
  name: "relu1"
  type: "ReLU"
  bottom: "conv1"
  top: "conv1"
}
layer {
  name: "pool1"
  type: "Pooling"
  bottom: "conv1"
  top: "pool1"
  top: "pool1_mask"
  pooling_param {
    pool: MAX
    kernel_size: 2
    stride: 2
  }
}
layer {
  name: "conv2"
  type: "Convolution"
  bottom: "pool1"
  top: "conv2"
  param {
    lr_mult: 1
    decay_mult: 1
  }
  param {
    lr_mult: 2
    decay_mult: 0
  }
  convolution_param {
    num_output: 64
    pad: 3
    kernel_size: 7
    weight_filler {
      type: "msra"
    }
    bias_filler {
      type: "constant"
    }
  }
}
layer {
  name: "conv2_bn"
  type: "BN"
  bottom: "conv2"
  top: "conv2"
  bn_param {
    scale_filler {
      type: "constant"
      value: 1
    }
    shift_filler {
      type: "constant"
      value: 0.001
    }
  }
}
layer {
  name: "relu2"
  type: "ReLU"
  bottom: "conv2"
  top: "conv2"
}
layer {
  name: "pool2"
  type: "Pooling"
  bottom: "conv2"
  top: "pool2"
  top: "pool2_mask"
  pooling_param {
    pool: MAX
    kernel_size: 2
    stride: 2
  }
}
layer {
  name: "conv3"
  type: "Convolution"
  bottom: "pool2"
  top: "conv3"
  param {
    lr_mult: 1
    decay_mult: 1
  }
  param {
    lr_mult: 2
    decay_mult: 0
  }
  convolution_param {
    num_output: 64
    pad: 3
    kernel_size: 7
    weight_filler {
      type: "msra"
    }
    bias_filler {
      type: "constant"
    }
  }
}
layer {
  name: "conv3_bn"
  type: "BN"
  bottom: "conv3"
  top: "conv3"
  bn_param {
    scale_filler {
      type: "constant"
      value: 1
    }
    shift_filler {
      type: "constant"
      value: 0.001
    }
  }
}
layer {
  name: "relu3"
  type: "ReLU"
  bottom: "conv3"
  top: "conv3"
}
layer {
  name: "pool3"
  type: "Pooling"
  bottom: "conv3"
  top: "pool3"
  top: "pool3_mask"
  pooling_param {
    pool: MAX
    kernel_size: 2
    stride: 2
  }
}
layer {
  name: "conv4"
  type: "Convolution"
  bottom: "pool3"
  top: "conv4"
  param {
    lr_mult: 1
    decay_mult: 1
  }
  param {
    lr_mult: 2
    decay_mult: 0
  }
  convolution_param {
    num_output: 64
    pad: 3
    kernel_size: 7
    weight_filler {
      type: "msra"
    }
    bias_filler {
      type: "constant"
    }
  }
}
layer {
  name: "conv4_bn"
  type: "BN"
  bottom: "conv4"
  top: "conv4"
  bn_param {
    scale_filler {
      type: "constant"
      value: 1
    }
    shift_filler {
      type: "constant"
      value: 0.001
    }
  }
}
layer {
  name: "relu4"
  type: "ReLU"
  bottom: "conv4"
  top: "conv4"
}
layer {
  name: "pool4"
  type: "Pooling"
  bottom: "conv4"
  top: "pool4"
  top: "pool4_mask"
  pooling_param {
    pool: MAX
    kernel_size: 2
    stride: 2
  }
}
layer {
  name: "upsample4"
  type: "Upsample"
  bottom: "pool4"
  bottom: "pool4_mask"
  top: "upsample4"
  upsample_param {
    scale: 2
    pad_out_h: true
  }
}
layer {
  name: "conv_decode4"
  type: "Convolution"
  bottom: "upsample4"
  top: "conv_decode4"
  param {
    lr_mult: 1
    decay_mult: 1
  }
  param {
    lr_mult: 2
    decay_mult: 0
  }
  convolution_param {
    num_output: 64
    pad: 3
    kernel_size: 7
    weight_filler {
      type: "msra"
    }
    bias_filler {
      type: "constant"
    }
  }
}
layer {
  name: "conv_decode4_bn"
  type: "BN"
  bottom: "conv_decode4"
  top: "conv_decode4"
  bn_param {
    scale_filler {
      type: "constant"
      value: 1
    }
    shift_filler {
      type: "constant"
      value: 0.001
    }
  }
}
layer {
  name: "upsample3"
  type: "Upsample"
  bottom: "conv_decode4"
  bottom: "pool3_mask"
  top: "upsample3"
  upsample_param {
    scale: 2
  }
}
layer {
  name: "conv_decode3"
  type: "Convolution"
  bottom: "upsample3"
  top: "conv_decode3"
  param {
    lr_mult: 1
    decay_mult: 1
  }
  param {
    lr_mult: 2
    decay_mult: 0
  }
  convolution_param {
    num_output: 64
    pad: 3
    kernel_size: 7
    weight_filler {
      type: "msra"
    }
    bias_filler {
      type: "constant"
    }
  }
}
layer {
  name: "conv_decode3_bn"
  type: "BN"
  bottom: "conv_decode3"
  top: "conv_decode3"
  bn_param {
    scale_filler {
      type: "constant"
      value: 1
    }
    shift_filler {
      type: "constant"
      value: 0.001
    }
  }
}
layer {
  name: "upsample2"
  type: "Upsample"
  bottom: "conv_decode3"
  bottom: "pool2_mask"
  top: "upsample2"
  upsample_param {
    scale: 2
  }
}
layer {
  name: "conv_decode2"
  type: "Convolution"
  bottom: "upsample2"
  top: "conv_decode2"
  param {
    lr_mult: 1
    decay_mult: 1
  }
  param {
    lr_mult: 2
    decay_mult: 0
  }
  convolution_param {
    num_output: 64
    pad: 3
    kernel_size: 7
    weight_filler {
      type: "msra"
    }
    bias_filler {
      type: "constant"
    }
  }
}
layer {
  name: "conv_decode2_bn"
  type: "BN"
  bottom: "conv_decode2"
  top: "conv_decode2"
  bn_param {
    scale_filler {
      type: "constant"
      value: 1
    }
    shift_filler {
      type: "constant"
      value: 0.001
    }
  }
}
layer {
  name: "upsample1"
  type: "Upsample"
  bottom: "conv_decode2"
  bottom: "pool1_mask"
  top: "upsample1"
  upsample_param {
    scale: 2
  }
}
layer {
  name: "conv_decode1"
  type: "Convolution"
  bottom: "upsample1"
  top: "conv_decode1"
  param {
    lr_mult: 1
    decay_mult: 1
  }
  param {
    lr_mult: 2
    decay_mult: 0
  }
  convolution_param {
    num_output: 64
    pad: 3
    kernel_size: 7
    weight_filler {
      type: "msra"
    }
    bias_filler {
      type: "constant"
    }
  }
}
layer {
  name: "conv_decode1_bn"
  type: "BN"
  bottom: "conv_decode1"
  top: "conv_decode1"
  bn_param {
    scale_filler {
      type: "constant"
      value: 1
    }
    shift_filler {
      type: "constant"
      value: 0.001
    }
  }
}
layer {
  name: "conv_classifier"
  type: "Convolution"
  bottom: "conv_decode1"
  top: "conv_classifier"
  param {
    lr_mult: 1
    decay_mult: 1
  }
  param {
    lr_mult: 2
    decay_mult: 0
  }
  convolution_param {
    num_output: 2
    kernel_size: 1
    weight_filler {
      type: "msra"
    }
    bias_filler {
      type: "constant"
    }
  }
}
layer {
  name: "loss"
  type: "SoftmaxWithLoss"
  bottom: "conv_classifier"
  bottom: "label"
  top: "loss"
  loss_param {
    ignore_label: 2
    weight_by_label_freqs: true
    class_weighting: 0.59744
    class_weighting: 3.06568
  }
  softmax_param {
    engine: CAFFE
  }
}
layer {
  name: "accuracy"
  type: "Accuracy"
  bottom: "conv_classifier"
  bottom: "label"
  top: "accuracy"
  top: "per_class_accuracy"
}
I0726 10:02:11.628705 39651 layer_factory.hpp:77] Creating layer data
I0726 10:02:11.628773 39651 net.cpp:100] Creating Layer data
I0726 10:02:11.628787 39651 net.cpp:408] data -> data
I0726 10:02:11.628814 39651 net.cpp:408] data -> label
I0726 10:02:11.628840 39651 dense_image_data_layer.cpp:49] Opening file data/mydata/train.txt
I0726 10:02:11.628899 39651 dense_image_data_layer.cpp:59] Shuffling data
I0726 10:02:11.629262 39651 dense_image_data_layer.cpp:64] A total of 4 examples.
I0726 10:02:11.653313 39651 dense_image_data_layer.cpp:117] output data size: 2,3,360,480
I0726 10:02:11.658493 39651 net.cpp:150] Setting up data
I0726 10:02:11.658537 39651 net.cpp:157] Top shape: 2 3 360 480 (1036800)
I0726 10:02:11.658547 39651 net.cpp:157] Top shape: 2 1 360 480 (345600)
I0726 10:02:11.658553 39651 net.cpp:165] Memory required for data: 5529600
I0726 10:02:11.658577 39651 layer_factory.hpp:77] Creating layer label_data_1_split
I0726 10:02:11.658604 39651 net.cpp:100] Creating Layer label_data_1_split
I0726 10:02:11.658617 39651 net.cpp:434] label_data_1_split <- label
I0726 10:02:11.658635 39651 net.cpp:408] label_data_1_split -> label_data_1_split_0
I0726 10:02:11.658651 39651 net.cpp:408] label_data_1_split -> label_data_1_split_1
I0726 10:02:11.658799 39651 net.cpp:150] Setting up label_data_1_split
I0726 10:02:11.658815 39651 net.cpp:157] Top shape: 2 1 360 480 (345600)
I0726 10:02:11.658825 39651 net.cpp:157] Top shape: 2 1 360 480 (345600)
I0726 10:02:11.658831 39651 net.cpp:165] Memory required for data: 8294400
I0726 10:02:11.658838 39651 layer_factory.hpp:77] Creating layer norm
I0726 10:02:11.658854 39651 net.cpp:100] Creating Layer norm
I0726 10:02:11.658862 39651 net.cpp:434] norm <- data
I0726 10:02:11.658871 39651 net.cpp:408] norm -> norm
I0726 10:02:11.658917 39651 net.cpp:150] Setting up norm
I0726 10:02:11.658929 39651 net.cpp:157] Top shape: 2 3 360 480 (1036800)
I0726 10:02:11.658936 39651 net.cpp:165] Memory required for data: 12441600
I0726 10:02:11.658941 39651 layer_factory.hpp:77] Creating layer conv1
I0726 10:02:11.658962 39651 net.cpp:100] Creating Layer conv1
I0726 10:02:11.658970 39651 net.cpp:434] conv1 <- norm
I0726 10:02:11.658979 39651 net.cpp:408] conv1 -> conv1
I0726 10:02:11.663494 39651 net.cpp:150] Setting up conv1
I0726 10:02:11.663547 39651 net.cpp:157] Top shape: 2 64 360 480 (22118400)
I0726 10:02:11.663563 39651 net.cpp:165] Memory required for data: 100915200
I0726 10:02:11.663600 39651 layer_factory.hpp:77] Creating layer conv1_bn
I0726 10:02:11.663627 39651 net.cpp:100] Creating Layer conv1_bn
I0726 10:02:11.663642 39651 net.cpp:434] conv1_bn <- conv1
I0726 10:02:11.663661 39651 net.cpp:395] conv1_bn -> conv1 (in-place)
I0726 10:02:11.668346 39651 net.cpp:150] Setting up conv1_bn
I0726 10:02:11.668393 39651 net.cpp:157] Top shape: 2 64 360 480 (22118400)
I0726 10:02:11.668411 39651 net.cpp:165] Memory required for data: 189388800
I0726 10:02:11.668434 39651 layer_factory.hpp:77] Creating layer relu1
I0726 10:02:11.668453 39651 net.cpp:100] Creating Layer relu1
I0726 10:02:11.668468 39651 net.cpp:434] relu1 <- conv1
I0726 10:02:11.668484 39651 net.cpp:395] relu1 -> conv1 (in-place)
I0726 10:02:11.668505 39651 net.cpp:150] Setting up relu1
I0726 10:02:11.668520 39651 net.cpp:157] Top shape: 2 64 360 480 (22118400)
I0726 10:02:11.668534 39651 net.cpp:165] Memory required for data: 277862400
I0726 10:02:11.668545 39651 layer_factory.hpp:77] Creating layer pool1
I0726 10:02:11.668563 39651 net.cpp:100] Creating Layer pool1
I0726 10:02:11.668576 39651 net.cpp:434] pool1 <- conv1
I0726 10:02:11.668593 39651 net.cpp:408] pool1 -> pool1
I0726 10:02:11.668615 39651 net.cpp:408] pool1 -> pool1_mask
I0726 10:02:11.668712 39651 net.cpp:150] Setting up pool1
I0726 10:02:11.668733 39651 net.cpp:157] Top shape: 2 64 180 240 (5529600)
I0726 10:02:11.668748 39651 net.cpp:157] Top shape: 2 64 180 240 (5529600)
I0726 10:02:11.668761 39651 net.cpp:165] Memory required for data: 322099200
I0726 10:02:11.668774 39651 layer_factory.hpp:77] Creating layer conv2
I0726 10:02:11.668798 39651 net.cpp:100] Creating Layer conv2
I0726 10:02:11.668813 39651 net.cpp:434] conv2 <- pool1
I0726 10:02:11.668859 39651 net.cpp:408] conv2 -> conv2
I0726 10:02:11.684948 39651 net.cpp:150] Setting up conv2
I0726 10:02:11.685005 39651 net.cpp:157] Top shape: 2 64 180 240 (5529600)
I0726 10:02:11.685019 39651 net.cpp:165] Memory required for data: 344217600
I0726 10:02:11.685046 39651 layer_factory.hpp:77] Creating layer conv2_bn
I0726 10:02:11.685073 39651 net.cpp:100] Creating Layer conv2_bn
I0726 10:02:11.685086 39651 net.cpp:434] conv2_bn <- conv2
I0726 10:02:11.685106 39651 net.cpp:395] conv2_bn -> conv2 (in-place)
I0726 10:02:11.685518 39651 net.cpp:150] Setting up conv2_bn
I0726 10:02:11.685550 39651 net.cpp:157] Top shape: 2 64 180 240 (5529600)
I0726 10:02:11.685561 39651 net.cpp:165] Memory required for data: 366336000
I0726 10:02:11.685577 39651 layer_factory.hpp:77] Creating layer relu2
I0726 10:02:11.685606 39651 net.cpp:100] Creating Layer relu2
I0726 10:02:11.685618 39651 net.cpp:434] relu2 <- conv2
I0726 10:02:11.685631 39651 net.cpp:395] relu2 -> conv2 (in-place)
I0726 10:02:11.685647 39651 net.cpp:150] Setting up relu2
I0726 10:02:11.685662 39651 net.cpp:157] Top shape: 2 64 180 240 (5529600)
I0726 10:02:11.685672 39651 net.cpp:165] Memory required for data: 388454400
I0726 10:02:11.685683 39651 layer_factory.hpp:77] Creating layer pool2
I0726 10:02:11.685698 39651 net.cpp:100] Creating Layer pool2
I0726 10:02:11.685710 39651 net.cpp:434] pool2 <- conv2
I0726 10:02:11.685724 39651 net.cpp:408] pool2 -> pool2
I0726 10:02:11.685740 39651 net.cpp:408] pool2 -> pool2_mask
I0726 10:02:11.685799 39651 net.cpp:150] Setting up pool2
I0726 10:02:11.685817 39651 net.cpp:157] Top shape: 2 64 90 120 (1382400)
I0726 10:02:11.685832 39651 net.cpp:157] Top shape: 2 64 90 120 (1382400)
I0726 10:02:11.685842 39651 net.cpp:165] Memory required for data: 399513600
I0726 10:02:11.685854 39651 layer_factory.hpp:77] Creating layer conv3
I0726 10:02:11.685878 39651 net.cpp:100] Creating Layer conv3
I0726 10:02:11.685890 39651 net.cpp:434] conv3 <- pool2
I0726 10:02:11.685905 39651 net.cpp:408] conv3 -> conv3
I0726 10:02:11.696413 39651 net.cpp:150] Setting up conv3
I0726 10:02:11.696461 39651 net.cpp:157] Top shape: 2 64 90 120 (1382400)
I0726 10:02:11.696476 39651 net.cpp:165] Memory required for data: 405043200
I0726 10:02:11.696509 39651 layer_factory.hpp:77] Creating layer conv3_bn
I0726 10:02:11.696538 39651 net.cpp:100] Creating Layer conv3_bn
I0726 10:02:11.696558 39651 net.cpp:434] conv3_bn <- conv3
I0726 10:02:11.696581 39651 net.cpp:395] conv3_bn -> conv3 (in-place)
I0726 10:02:11.696966 39651 net.cpp:150] Setting up conv3_bn
I0726 10:02:11.696986 39651 net.cpp:157] Top shape: 2 64 90 120 (1382400)
I0726 10:02:11.696996 39651 net.cpp:165] Memory required for data: 410572800
I0726 10:02:11.697011 39651 layer_factory.hpp:77] Creating layer relu3
I0726 10:02:11.697026 39651 net.cpp:100] Creating Layer relu3
I0726 10:02:11.697036 39651 net.cpp:434] relu3 <- conv3
I0726 10:02:11.697047 39651 net.cpp:395] relu3 -> conv3 (in-place)
I0726 10:02:11.697063 39651 net.cpp:150] Setting up relu3
I0726 10:02:11.697077 39651 net.cpp:157] Top shape: 2 64 90 120 (1382400)
I0726 10:02:11.697087 39651 net.cpp:165] Memory required for data: 416102400
I0726 10:02:11.697098 39651 layer_factory.hpp:77] Creating layer pool3
I0726 10:02:11.697111 39651 net.cpp:100] Creating Layer pool3
I0726 10:02:11.697122 39651 net.cpp:434] pool3 <- conv3
I0726 10:02:11.697134 39651 net.cpp:408] pool3 -> pool3
I0726 10:02:11.697150 39651 net.cpp:408] pool3 -> pool3_mask
I0726 10:02:11.697206 39651 net.cpp:150] Setting up pool3
I0726 10:02:11.697226 39651 net.cpp:157] Top shape: 2 64 45 60 (345600)
I0726 10:02:11.697237 39651 net.cpp:157] Top shape: 2 64 45 60 (345600)
I0726 10:02:11.697247 39651 net.cpp:165] Memory required for data: 418867200
I0726 10:02:11.697257 39651 layer_factory.hpp:77] Creating layer conv4
I0726 10:02:11.697278 39651 net.cpp:100] Creating Layer conv4
I0726 10:02:11.697288 39651 net.cpp:434] conv4 <- pool3
I0726 10:02:11.697304 39651 net.cpp:408] conv4 -> conv4
I0726 10:02:11.711236 39651 net.cpp:150] Setting up conv4
I0726 10:02:11.711305 39651 net.cpp:157] Top shape: 2 64 45 60 (345600)
I0726 10:02:11.711316 39651 net.cpp:165] Memory required for data: 420249600
I0726 10:02:11.711333 39651 layer_factory.hpp:77] Creating layer conv4_bn
I0726 10:02:11.711357 39651 net.cpp:100] Creating Layer conv4_bn
I0726 10:02:11.711369 39651 net.cpp:434] conv4_bn <- conv4
I0726 10:02:11.711383 39651 net.cpp:395] conv4_bn -> conv4 (in-place)
I0726 10:02:11.711675 39651 net.cpp:150] Setting up conv4_bn
I0726 10:02:11.711694 39651 net.cpp:157] Top shape: 2 64 45 60 (345600)
I0726 10:02:11.711704 39651 net.cpp:165] Memory required for data: 421632000
I0726 10:02:11.711716 39651 layer_factory.hpp:77] Creating layer relu4
I0726 10:02:11.711730 39651 net.cpp:100] Creating Layer relu4
I0726 10:02:11.711740 39651 net.cpp:434] relu4 <- conv4
I0726 10:02:11.711760 39651 net.cpp:395] relu4 -> conv4 (in-place)
I0726 10:02:11.711774 39651 net.cpp:150] Setting up relu4
I0726 10:02:11.711787 39651 net.cpp:157] Top shape: 2 64 45 60 (345600)
I0726 10:02:11.711797 39651 net.cpp:165] Memory required for data: 423014400
I0726 10:02:11.711807 39651 layer_factory.hpp:77] Creating layer pool4
I0726 10:02:11.711820 39651 net.cpp:100] Creating Layer pool4
I0726 10:02:11.711830 39651 net.cpp:434] pool4 <- conv4
I0726 10:02:11.711843 39651 net.cpp:408] pool4 -> pool4
I0726 10:02:11.711858 39651 net.cpp:408] pool4 -> pool4_mask
I0726 10:02:11.711916 39651 net.cpp:150] Setting up pool4
I0726 10:02:11.711932 39651 net.cpp:157] Top shape: 2 64 23 30 (88320)
I0726 10:02:11.711944 39651 net.cpp:157] Top shape: 2 64 23 30 (88320)
I0726 10:02:11.711953 39651 net.cpp:165] Memory required for data: 423720960
I0726 10:02:11.711963 39651 layer_factory.hpp:77] Creating layer upsample4
I0726 10:02:11.711988 39651 net.cpp:100] Creating Layer upsample4
I0726 10:02:11.711999 39651 net.cpp:434] upsample4 <- pool4
I0726 10:02:11.712010 39651 net.cpp:434] upsample4 <- pool4_mask
I0726 10:02:11.712023 39651 net.cpp:408] upsample4 -> upsample4
I0726 10:02:11.712044 39651 upsample_layer.cpp:27] Params 'pad_out_{}_' are deprecated. Please declare upsample height and width useing the upsample_h, upsample_w parameters.
I0726 10:02:11.712077 39651 net.cpp:150] Setting up upsample4
I0726 10:02:11.712092 39651 net.cpp:157] Top shape: 2 64 45 60 (345600)
I0726 10:02:11.712102 39651 net.cpp:165] Memory required for data: 425103360
I0726 10:02:11.712112 39651 layer_factory.hpp:77] Creating layer conv_decode4
I0726 10:02:11.712132 39651 net.cpp:100] Creating Layer conv_decode4
I0726 10:02:11.712144 39651 net.cpp:434] conv_decode4 <- upsample4
I0726 10:02:11.712158 39651 net.cpp:408] conv_decode4 -> conv_decode4
I0726 10:02:11.721264 39651 net.cpp:150] Setting up conv_decode4
I0726 10:02:11.721290 39651 net.cpp:157] Top shape: 2 64 45 60 (345600)
I0726 10:02:11.721300 39651 net.cpp:165] Memory required for data: 426485760
I0726 10:02:11.721320 39651 layer_factory.hpp:77] Creating layer conv_decode4_bn
I0726 10:02:11.721335 39651 net.cpp:100] Creating Layer conv_decode4_bn
I0726 10:02:11.721346 39651 net.cpp:434] conv_decode4_bn <- conv_decode4
I0726 10:02:11.721357 39651 net.cpp:395] conv_decode4_bn -> conv_decode4 (in-place)
I0726 10:02:11.721637 39651 net.cpp:150] Setting up conv_decode4_bn
I0726 10:02:11.721654 39651 net.cpp:157] Top shape: 2 64 45 60 (345600)
I0726 10:02:11.721663 39651 net.cpp:165] Memory required for data: 427868160
I0726 10:02:11.721675 39651 layer_factory.hpp:77] Creating layer upsample3
I0726 10:02:11.721688 39651 net.cpp:100] Creating Layer upsample3
I0726 10:02:11.721696 39651 net.cpp:434] upsample3 <- conv_decode4
I0726 10:02:11.721706 39651 net.cpp:434] upsample3 <- pool3_mask
I0726 10:02:11.721719 39651 net.cpp:408] upsample3 -> upsample3
I0726 10:02:11.721731 39651 upsample_layer.cpp:27] Params 'pad_out_{}_' are deprecated. Please declare upsample height and width useing the upsample_h, upsample_w parameters.
I0726 10:02:11.721763 39651 net.cpp:150] Setting up upsample3
I0726 10:02:11.721777 39651 net.cpp:157] Top shape: 2 64 90 120 (1382400)
I0726 10:02:11.721786 39651 net.cpp:165] Memory required for data: 433397760
I0726 10:02:11.721810 39651 layer_factory.hpp:77] Creating layer conv_decode3
I0726 10:02:11.721828 39651 net.cpp:100] Creating Layer conv_decode3
I0726 10:02:11.721839 39651 net.cpp:434] conv_decode3 <- upsample3
I0726 10:02:11.721853 39651 net.cpp:408] conv_decode3 -> conv_decode3
I0726 10:02:11.732635 39651 net.cpp:150] Setting up conv_decode3
I0726 10:02:11.732681 39651 net.cpp:157] Top shape: 2 64 90 120 (1382400)
I0726 10:02:11.732691 39651 net.cpp:165] Memory required for data: 438927360
I0726 10:02:11.732704 39651 layer_factory.hpp:77] Creating layer conv_decode3_bn
I0726 10:02:11.732720 39651 net.cpp:100] Creating Layer conv_decode3_bn
I0726 10:02:11.732730 39651 net.cpp:434] conv_decode3_bn <- conv_decode3
I0726 10:02:11.732743 39651 net.cpp:395] conv_decode3_bn -> conv_decode3 (in-place)
I0726 10:02:11.733034 39651 net.cpp:150] Setting up conv_decode3_bn
I0726 10:02:11.733052 39651 net.cpp:157] Top shape: 2 64 90 120 (1382400)
I0726 10:02:11.733059 39651 net.cpp:165] Memory required for data: 444456960
I0726 10:02:11.733072 39651 layer_factory.hpp:77] Creating layer upsample2
I0726 10:02:11.733084 39651 net.cpp:100] Creating Layer upsample2
I0726 10:02:11.733093 39651 net.cpp:434] upsample2 <- conv_decode3
I0726 10:02:11.733103 39651 net.cpp:434] upsample2 <- pool2_mask
I0726 10:02:11.733114 39651 net.cpp:408] upsample2 -> upsample2
I0726 10:02:11.733126 39651 upsample_layer.cpp:27] Params 'pad_out_{}_' are deprecated. Please declare upsample height and width useing the upsample_h, upsample_w parameters.
I0726 10:02:11.733155 39651 net.cpp:150] Setting up upsample2
I0726 10:02:11.733170 39651 net.cpp:157] Top shape: 2 64 180 240 (5529600)
I0726 10:02:11.733176 39651 net.cpp:165] Memory required for data: 466575360
I0726 10:02:11.733186 39651 layer_factory.hpp:77] Creating layer conv_decode2
I0726 10:02:11.733203 39651 net.cpp:100] Creating Layer conv_decode2
I0726 10:02:11.733213 39651 net.cpp:434] conv_decode2 <- upsample2
I0726 10:02:11.733225 39651 net.cpp:408] conv_decode2 -> conv_decode2
I0726 10:02:11.741592 39651 net.cpp:150] Setting up conv_decode2
I0726 10:02:11.741617 39651 net.cpp:157] Top shape: 2 64 180 240 (5529600)
I0726 10:02:11.741626 39651 net.cpp:165] Memory required for data: 488693760
I0726 10:02:11.741638 39651 layer_factory.hpp:77] Creating layer conv_decode2_bn
I0726 10:02:11.741652 39651 net.cpp:100] Creating Layer conv_decode2_bn
I0726 10:02:11.741660 39651 net.cpp:434] conv_decode2_bn <- conv_decode2
I0726 10:02:11.741672 39651 net.cpp:395] conv_decode2_bn -> conv_decode2 (in-place)
I0726 10:02:11.742002 39651 net.cpp:150] Setting up conv_decode2_bn
I0726 10:02:11.742017 39651 net.cpp:157] Top shape: 2 64 180 240 (5529600)
I0726 10:02:11.742025 39651 net.cpp:165] Memory required for data: 510812160
I0726 10:02:11.742036 39651 layer_factory.hpp:77] Creating layer upsample1
I0726 10:02:11.742048 39651 net.cpp:100] Creating Layer upsample1
I0726 10:02:11.742055 39651 net.cpp:434] upsample1 <- conv_decode2
I0726 10:02:11.742065 39651 net.cpp:434] upsample1 <- pool1_mask
I0726 10:02:11.742075 39651 net.cpp:408] upsample1 -> upsample1
I0726 10:02:11.742087 39651 upsample_layer.cpp:27] Params 'pad_out_{}_' are deprecated. Please declare upsample height and width useing the upsample_h, upsample_w parameters.
I0726 10:02:11.742117 39651 net.cpp:150] Setting up upsample1
I0726 10:02:11.742130 39651 net.cpp:157] Top shape: 2 64 360 480 (22118400)
I0726 10:02:11.742137 39651 net.cpp:165] Memory required for data: 599285760
I0726 10:02:11.742146 39651 layer_factory.hpp:77] Creating layer conv_decode1
I0726 10:02:11.742164 39651 net.cpp:100] Creating Layer conv_decode1
I0726 10:02:11.742174 39651 net.cpp:434] conv_decode1 <- upsample1
I0726 10:02:11.742187 39651 net.cpp:408] conv_decode1 -> conv_decode1
I0726 10:02:11.752280 39651 net.cpp:150] Setting up conv_decode1
I0726 10:02:11.752313 39651 net.cpp:157] Top shape: 2 64 360 480 (22118400)
I0726 10:02:11.752322 39651 net.cpp:165] Memory required for data: 687759360
I0726 10:02:11.752334 39651 layer_factory.hpp:77] Creating layer conv_decode1_bn
I0726 10:02:11.752367 39651 net.cpp:100] Creating Layer conv_decode1_bn
I0726 10:02:11.752377 39651 net.cpp:434] conv_decode1_bn <- conv_decode1
I0726 10:02:11.752388 39651 net.cpp:395] conv_decode1_bn -> conv_decode1 (in-place)
I0726 10:02:11.756269 39651 net.cpp:150] Setting up conv_decode1_bn
I0726 10:02:11.756302 39651 net.cpp:157] Top shape: 2 64 360 480 (22118400)
I0726 10:02:11.756312 39651 net.cpp:165] Memory required for data: 776232960
I0726 10:02:11.756325 39651 layer_factory.hpp:77] Creating layer conv_classifier
I0726 10:02:11.756343 39651 net.cpp:100] Creating Layer conv_classifier
I0726 10:02:11.756352 39651 net.cpp:434] conv_classifier <- conv_decode1
I0726 10:02:11.756366 39651 net.cpp:408] conv_classifier -> conv_classifier
I0726 10:02:11.756783 39651 net.cpp:150] Setting up conv_classifier
I0726 10:02:11.756800 39651 net.cpp:157] Top shape: 2 2 360 480 (691200)
I0726 10:02:11.756808 39651 net.cpp:165] Memory required for data: 778997760
I0726 10:02:11.756829 39651 layer_factory.hpp:77] Creating layer conv_classifier_conv_classifier_0_split
I0726 10:02:11.756847 39651 net.cpp:100] Creating Layer conv_classifier_conv_classifier_0_split
I0726 10:02:11.756855 39651 net.cpp:434] conv_classifier_conv_classifier_0_split <- conv_classifier
I0726 10:02:11.756866 39651 net.cpp:408] conv_classifier_conv_classifier_0_split -> conv_classifier_conv_classifier_0_split_0
I0726 10:02:11.756882 39651 net.cpp:408] conv_classifier_conv_classifier_0_split -> conv_classifier_conv_classifier_0_split_1
I0726 10:02:11.756930 39651 net.cpp:150] Setting up conv_classifier_conv_classifier_0_split
I0726 10:02:11.756943 39651 net.cpp:157] Top shape: 2 2 360 480 (691200)
I0726 10:02:11.756952 39651 net.cpp:157] Top shape: 2 2 360 480 (691200)
I0726 10:02:11.756959 39651 net.cpp:165] Memory required for data: 784527360
I0726 10:02:11.756968 39651 layer_factory.hpp:77] Creating layer loss
I0726 10:02:11.756983 39651 net.cpp:100] Creating Layer loss
I0726 10:02:11.756992 39651 net.cpp:434] loss <- conv_classifier_conv_classifier_0_split_0
I0726 10:02:11.757001 39651 net.cpp:434] loss <- label_data_1_split_0
I0726 10:02:11.757014 39651 net.cpp:408] loss -> loss
I0726 10:02:11.757035 39651 layer_factory.hpp:77] Creating layer loss
I0726 10:02:11.760042 39651 net.cpp:150] Setting up loss
I0726 10:02:11.760069 39651 net.cpp:157] Top shape: (1)
I0726 10:02:11.760077 39651 net.cpp:160]     with loss weight 1
I0726 10:02:11.760109 39651 net.cpp:165] Memory required for data: 784527364
I0726 10:02:11.760118 39651 layer_factory.hpp:77] Creating layer accuracy
I0726 10:02:11.760130 39651 net.cpp:100] Creating Layer accuracy
I0726 10:02:11.760140 39651 net.cpp:434] accuracy <- conv_classifier_conv_classifier_0_split_1
I0726 10:02:11.760152 39651 net.cpp:434] accuracy <- label_data_1_split_1
I0726 10:02:11.760164 39651 net.cpp:408] accuracy -> accuracy
I0726 10:02:11.760177 39651 net.cpp:408] accuracy -> per_class_accuracy
I0726 10:02:11.760226 39651 net.cpp:150] Setting up accuracy
I0726 10:02:11.760237 39651 net.cpp:157] Top shape: (1)
I0726 10:02:11.760246 39651 net.cpp:157] Top shape: 2 (2)
I0726 10:02:11.760254 39651 net.cpp:165] Memory required for data: 784527376
I0726 10:02:11.760262 39651 net.cpp:228] accuracy does not need backward computation.
I0726 10:02:11.760272 39651 net.cpp:226] loss needs backward computation.
I0726 10:02:11.760279 39651 net.cpp:226] conv_classifier_conv_classifier_0_split needs backward computation.
I0726 10:02:11.760288 39651 net.cpp:226] conv_classifier needs backward computation.
…
